5.1/deployment_models/edge_security_net_complete.pt (torch, 13909 bytes, 13 tensors)

weight f4 [32, 21]
00000000: 504a 133e a85a df3d 07c2 713d df8a 133d
00000010: 8434 16be e15a 233d c3d4 803d 0906 4e3e
00000020: e029 97be 2168 45bb 3724 bc3d a2b9 fd3d
00000030: 9044 043e 4c54 1b3d b0b5 403d dfef 2e3c
00000040: 78b0 033e f7fd 333e 2f83 003e 9e32 a03c
00000050: bcf3 fd3d cb14 963c 55c5 01bd 9837 303d
00000060: 8f9e f83d 60d3 7fbc 4d21 13be 708e 0dbd
00000070: b9f8 99be 9fe7 acbd 4ff2 17bc b083 303e
00000080: edf9 fb3d c71f 97bc 9fc0 79bd 68a0 27be
00000090: f497 143d 9b60 c7bd 702e a33d 300e 4bbd
000000a0: ceac 3abd f63c 3dbe 9d54 903d 98e0 053e
000000b0: 256a 4cbe eee1 af3d 3a01 243e b184 0f3d
000000c0: 7484 03be 9887 56be d11f 9dbd 0658 0abe
000000d0: 8330 fd3d ff48 c9bd 2217 a4bd 6252 d73d
000000e0: 76f9 ab3d 23d0 96bc f126 013e 2d59 ab3d
000000f0: 7959 21be 5561 16be ff1c ac3d f0aa f0bc
00000100: df00 3e3b 4334 c5b9 0549 0d3c 42a0 273a
00000110: 2a73 9cbc c388 6c3c 7381 cb3e f85e 50ba
00000120: 41e7 823b 08f1 62bc 5458 e7bc e6ec a439
00000130: df69 25bd 634d 723c b63a 133b 2056 d23c
00000140: 9301 923b 0b1b afbb c21d b3bb 1cb5 003c
00000150: b685 e5bd 811d ab3d 612a 043d d32d 55bd
00000160: 2572 463e da3f b8bd 0023 ab3c 7f0c 23be
00000170: 301d 0abd 1da5 103c c3b1 b4bd 18dc 223e
00000180: d378 00be 4290 bc3d 8d7f babb 7d90 a6bd
00000190: b6ba 193e 143c aa3d 8c80 bebc 6fd0 4ebe
000001a0: 4c70 153d a265 20bd aaf0 b3bb 9919 e73b
000001b0: 6f30 45bb 3a55 fdb8 f702 b6bc 64a2 e43b
000001c0: 907d ac3e 1c7f f1bc a1c7 1b3c 0f60 e0bb
000001d0: 2bcb ccbc ea73 403d 8dd0 cebb 17af 43bc
000001e0: 6fc0 323c e03f 5a3c c809 163d 4083 8337
000001f0: e356 fa3c c76c 203a 908c 14be 38fe 88bc
00000200: d620 e1bd d246 ecb7 ef41 02be f758 cdbc
00000210: 851a d9bb 2938 83be 6fdd ac3d 8492 0a3e
00000220: 9229 40bd 5a16 283e 7d4d 40be 4d73 373d
00000230: c6fe e8bd 7eda 073e dc0c 2e3e 3e14 31bd
00000240: b1d5 1b3e c506 be3d 8d11 a43d 167e ac3c
00000250: 8843 2d3c ee83 31bd fdb6 b5bd dd55 713d
00000260: 346a 2d3d 1f89 7a3d a94f 94be d06a 8b3d
00000270: 3cd3 f4bc 91e6 20be 6736 1c3d e3fb e23d
00000280: 3a0b e438 bb90 5a3d f1ea 38be f20d 48bd
00000290: 0930 0bbd 7b76 33be 5dc6 9f3c 294e f6bc
000002a0: 9b65 93bc 3758 d83b 5809 8abc 311c 843c
000002b0: 40b7 be3c f572 cab9 fdcf 4b3c 6cbc da3e
000002c0: 269f 07bd e3a7 0dbc 34d6 cf3b df67 883a
000002d0: 8795 643c 99a3 073c b0a2 903c 7a92 8abc
000002e0: d898 a43c eaca 633c e458 3abb 237a 713c
000002f0: 4208 43ba 0846 ff3d 3466 263e 3602 0cbe
00000300: 687e c53c d0a8 cf3d 5108 efbd 80a5 a83c
00000310: 2439 c4be 7f5e 0cbe 4de4 e53d 0d61 5b3e
00000320: a1a3 893d b17d c53d ae56 ef3d 0432 09be
00000330: 62f7 acbd 6979 d8bd def0 8ebd 8c8f d13d
00000340: 29f8 c0bc 614d 0c3e 96f3 a03c 3d45 ee3c
00000350: 8402 bdbd 4489 29bd ce1e 973d 0062 053d
00000360: c845 f73c df38 d63e 792d a4bb c26f e33c
00000370: 8853 8e3d 8aad f93c cdc4 443e 5337 99bc
00000380: 078f 97bd e078 883c bc72 993c 200a e73c
00000390: b3cd 8b3c 3ba6 65bd 3a3c 2b3d d397 403d
000003a0: d85d dcbd cc9f c1bc ba4f 5a3d c3aa efbc
000003b0: da09 92bc 69e5 d93c 2620 e73e 696e d8bd
000003c0: 0806 ebbc 30bf 353d 43f4 5c3d a4b3 fe3d
000003d0: a6ee 813d 1d8c 2a3c a45f aa3d 2ef6 803d
000003e0: 0127 bcbc df92 ba3c 1aad 863d 393a c93a
000003f0: fc0c a13d 63e5 f03c a50c 21be 6a40 19bd
0.14383817 0.10905963 0.05902293 0.03602111 -0.1466847 0.03988159 0.06290581 0.2011949
-0.29524136 -0.003012188 0.09186595 0.12388922 0.1291678 0.03792219 0.04704827 0.010677307
0.12860286 0.17577349 0.12550043 0.019555386 0.12400004 0.018320462 -0.03168233 0.04302177
0.12139618 -0.015614361 -0.14368172 -0.034559667 -0.30072573 -0.08442616 -0.009274079 0.17237735
0.12303529 -0.01844777 -0.060974713 -0.16369784 0.036277726 -0.09735223 0.079678416 -0.049574077
-0.045574956 -0.18480286 0.07047389 0.13073957 -0.19962366 0.085880145 0.16016093 0.035038654
-0.12843496 -0.20950162 -0.07672084 -0.13510141 0.123627685 -0.09828376 -0.08012225 0.1051376
0.0839719 -0.018409794 0.12612511 0.08366618 -0.15756787 -0.14685567 0.08403968 -0.029378384
0.0028992218 -0.00037613706 0.008623366 0.00063944247 -0.019097883 0.014436903 0.397472 -0.0007948722
0.003994853 -0.013851412 -0.02824036 0.0003145702 -0.04038417 0.014788958 0.0022465414 0.025675833
0.004455754 -0.0053438 -0.005466194 0.00785568 -0.11207144 0.08355237 0.03226698 -0.052045655
0.1937948 -0.08996554 0.020890713 -0.15922736 -0.03371924 0.008828429 -0.08822968 0.15904272
-0.12546091 0.092072025 -0.005691475 -0.08133028 0.15012631 0.0831224 -0.023254655 -0.20196699
0.036484048 -0.039159425 -0.005491336 0.007052612 -0.0030088683 -0.00012079855 -0.02221821 0.0069773663
0.33689547 -0.029479556 0.009508044 -0.0068473886 -0.024999222 0.046985544 -0.0063114823 -0.0119436
0.010910138 0.013320893 0.036630422 1.5677535e-05 0.030559009 0.0006119725 -0.14506745 -0.016722783
-0.10992591 -2.816637e-05 -0.12720464 -0.025066836 -0.006625476 -0.25628784 0.084406726 0.13532454
-0.046914645 0.16414776 -0.1877956 0.044787694 -0.11376719 0.13266942 0.16997093 -0.043232195
0.15218236 0.09278635 0.0801116 0.021056216 0.010575183 -0.04333871 -0.08872793 0.058919776
0.04233761 0.061165925 -0.28967026 0.06807482 -0.02988588 -0.15712954 0.03813782 0.110832
0.00010873978 0.053360682 -0.18058373 -0.048841424 -0.033981357 -0.17525665 0.019503767 -0.030066567
-0.017992785 0.006602313 -0.016850159 0.016126724 0.02328074 -0.00038614092 0.012439725 0.4272188
-0.03311076 -0.008645984 0.0063426737 0.0010406933 0.013951666 0.008278751 0.0176557 -0.016915549
0.020092413 0.013903359 -0.002843433 0.014738592 -0.000743989 0.12464529 0.16249925 -0.13672718
0.024108127 0.1013962 -0.11671508 0.020586729 -0.38324845 -0.13707922 0.112251855 0.2142374
0.06720663 0.09643114 0.11686455 -0.13397986 -0.08445622 -0.10570032 -0.069795355 0.102324575
-0.023555832 0.13701393 0.0196474 0.02908575 -0.092289954 -0.041390672 0.073789224 0.032564163
0.030184641 0.41840264 -0.0050103036 0.027763251 0.06949526 0.030478258 0.19215699 -0.018703138
-0.07400327 0.0166592 0.018731467 0.02820307 0.017065858 -0.056066733 0.041805483 0.04701979
-0.10760087 -0.023635767 0.05329869 -0.02925623 -0.017826963 0.02659865 0.45141715 -0.10567934
-0.0286894 0.044371784 0.053943884 0.124366075 0.06344347 0.010409382 0.08319023 0.06296955
-0.022967817 0.022775112 0.06575985 0.0015352435 0.07863805 0.029406255 -0.1572748 -0.037414946

bias f4 [32]
00000000: 0354 9eb3 00ff e134 63e4 8f34 2633 af36
00000010: 9a3c 2533 003a f3b3 63fa 00b4 8712 e535
00000020: 4a05 2eb6 1899 ff33 20c6 aa34 799e f2b4
00000030: f25c a6b3 1515 5335 5f89 87b5 203e b233
00000040: b170 be35 77f5 5835 1bf7 7136 a2af 8fb4
00000050: ee58 13b6 ff25 abb4 a0cf 4db4 9bf8 b9b4
00000060: a2a5 8db5 2cf8 9f35 5f2d 97b4 8ec9 a0b5
00000070: f709 74b3 cf57 d535 786f b4b1 a8e1 84b5
-7.37273e-08 4.2095053e-07 2.6802e-07 5.221361e-06 3.8472173e-08 -1.13261194e-07 -1.2012019e-07 1.7067222e-06
-2.59311e-06 1.19022104e-07 3.1809122e-07 -4.5191317e-07 -7.746884e-08 7.8634304e-07 -1.0098264e-06 8.3000714e-08
1.4188901e-06 8.082347e-07 3.6055633e-06 -2.6763615e-07 -2.195647e-06 -3.1878878e-07 -1.9167646e-07 -3.463982e-07
-1.0553524e-06 1.1918651e-06 -2.8158954e-07 -1.1979589e-06 -5.681974e-08 1.5895292e-06 -5.251362e-09 -9.900441e-07

weight f4 [32]
00000000: e1e6 4b3f 8da8 513f a442 4b3f 4bca 8c3f
00000010: 02a9 433f 7c0d 853f 58b5 593f 29a9 5a3f
00000020: 2c8e 933f 3b71 473f 9ab4 693f 4536 663f
00000030: a9d7 513f f0af 4d3f 8235 7d3f 2f50 893f
00000040: e3a3 733f 168f 6f3f 28e4 883f 5b91 6c3f
00000050: 42cd 8f3f e302 533f a826 443f 1fe5 733f
00000060: 41c3 6a3f 2f06 873f 8f45 603f f7ec 943f
00000070: 2574 4f3f ba83 7d3f 57a5 483f d5cb 813f
0.7964917 0.81897813 0.7939856 1.0999235 0.7642976 1.039474 0.85042334 0.8541437
1.1527762 0.7790715 0.912912 0.8992656 0.81969696 0.80346584 0.9890977 1.0727595
0.95171946 0.93577707 1.0694628 0.92409295 1.1234515 0.8242628 0.76621485 0.95271486
0.91704184 1.0548762 0.8760614 1.1634816 0.810366 0.99029124 0.7837729 1.014033

bias f4 [32]
00000000: 5184 fcbd 58cd 66bd 470d e9bd 967c f8bd
00000010: f95b eebd 6a04 8abd ab42 ef3b 8475 a9bd
00000020: 7d72 d9bd 47b0 86bd ea10 a3bc 01a5 cbbc
00000030: eed9 95bd 9bac e8bd bdb7 173e 9cbc 21be
00000040: db22 3e3d 9ce5 d03d 7865 b8bd 864d adbd
00000050: 2894 14be 63b8 cdbd 60d7 0cbe f0ca cbbc
00000060: a9aa c3bd 6daf d2bd 3060 183d fa6f d9bd
00000070: 51f0 d2bd 723d e5bd 61a9 2abe a3fd 28bd
-0.12329925 -0.056348175 -0.113794856 -0.12133138 -0.11638636 -0.06739123 0.0073016486 -0.082743675
-0.1061754 -0.06576591 -0.019905526 -0.024858953 -0.073169574 -0.11361047 0.14816184 -0.15794605
0.04641996 0.102000445 -0.09003729 -0.08462052 -0.14509642 -0.100449346 -0.13754034 -0.024877042
-0.09554035 -0.10287366 0.037201107 -0.10617061 -0.10299743 -0.111933604 -0.16666175 -0.04125751

running_mean f4 [32]
00000000: 9d92 3ebc 6127 30bc 335a 8bbc 9232 ac3b
00000010: 9aeb 18bc 234e 8d3b 41fc eabb a058 193c
00000020: 551f a13b 8f07 99bb e696 243c 3161 8a3b
00000030: 1723 97bb 3e4d 853c 9cbb c6ba f259 a23b
00000040: 6b6e 13bc 30dd 1fba 24c1 9b3b 8d04 d63b
00000050: 85be a03b 38e3 d8bb 3467 8b3c 1204 eb3b
00000060: c122 143c 5514 ac3b 86c9 18bc 4216 863b
00000070: 9c4e bdba be50 df3b b8c3 813b 88a6 a93b
-0.011631635 -0.010751576 -0.017010784 0.005255052 -0.009333516 0.004312293 -0.0071711843 0.009359509
0.004917065 -0.0046700905 0.010045743 0.004223012 -0.0046123373 0.016272184 -0.0015162113 0.00495457
-0.008998494 -0.0006098328 0.0047532488 0.006531304 0.004905524 -0.0066188835 0.017016985 0.007172116
0.009041489 0.005251447 -0.009325391 0.004092009 -0.0014442983 0.006815045 0.003960099 0.005177323

running_var f4 [32]
00000000: 30ef bd3e b0f8 8b3e 12c7 9c3e 7341 2c3e
00000010: 5ba4 853e cce7 123e ca24 c03e aaa3 493e
00000020: 31b5 4e3e 80a5 b63e 4755 a83e b161 b63e
00000030: a9a9 c43e 4913 d63e ecf2 833e 5683 663e
00000040: 21dd 833e b7a2 8e3e 41c4 1a3e ad86 3c3e
00000050: 8973 2f3e 0bf7 ac3e 3ac4 dd3e bb0d 593e
00000060: 939a 973e 4595 113e 94d4 e23e 19bb 273e
00000070: 7a91 883e 8af2 8b3e 02ae d13e 1ac1 8b3e
0.37096548 0.2733817 0.3062063 0.16821842 0.26101956 0.14346236 0.37528068 0.19691339
0.20186307 0.3567314 0.3287756 0.35621408 0.3841069 0.41811588 0.25771272 0.22511038
0.25754645 0.27858517 0.15113927 0.1841075 0.17133917 0.3378223 0.4331377 0.21196644
0.29610118 0.14217098 0.4430281 0.16379966 0.2667349 0.2733348 0.4095307 0.27295762

weight f4 [16, 32]
00000000: 4805 693c ff49 a3bd 1ae7 85bc d90a e63d
00000010: f7a3 c1bd 0780 e93d 06f9 73bd bbef 2fbd
00000020: 8777 b53d 6918 56bd a58c c23d 7870 c33d
00000030: 7876 27bd ba13 6e3d 88b1 0ebe 7803 003e
00000040: e44c 54be ffc7 adbd ce0e f13d 6bbd e03d
00000050: 1944 dc3d f8ad a7bd 384c 3dbc 5c0e 043d
00000060: 6c4f b63d be9d de3d d403 0bbe 03e5 1b3e
00000070: 6f0e e03b 9a0b 933d 4851 133c a12f 433e
00000080: 4cb0 be3d 6d85 14bb ea24 03bb 3cb4 0b3e
00000090: 5c0e c9bd 1cf7 2f3e 410a 743c 4988 3c3d
000000a0: b05a 4a3e f367 12be 40ec db3d 3270 803d
000000b0: 11cd abbd c1c8 e53d 7b96 5cbe ce7e 4a3d
000000c0: 9fad 09bd 5048 1ebe 1e78 8dbb 1c25 113e
000000d0: b4be 723e ae56 66bd c452 a6bc 963b 2a3e
000000e0: 6d4c a23d 0877 d13d e576 7dbd 5375 633c
000000f0: d962 fdbd 422f 053e 79e2 ed3c 4e22 f33d
00000100: 9e8a f6bb 8999 90bb eac7 d5bd 4447 0a3e
00000110: a05c ccbd 7a9c 423d ba07 c7bc fce1 41bd
00000120: 0d74 ea3d 6127 093c be1a f83d 1031 703d
00000130: 1b79 82bc c03f 9ebc 1b02 e4bd eae6 7d3d
00000140: a04e 04be 480f a3bd f656 eb3d 38eb 943d
00000150: e75f cb3d afed 87bd 61d4 8f3d a3c6 ad3d
00000160: 0e62 213d 404f c63d 01e9 dabd b140 333e
00000170: 3822 1abe d15c e53d 1073 b8bd 317c ee3d
00000180: 3304 a33d 1603 86bd 828a a3bc 37b7 243e
00000190: 2035 34bd c8b4 6f3d fa2b 04be a69a e5bc
000001a0: 121f 103e b4c4 01be 8874 1b3d eceb 453d
000001b0: 0873 29bc cd64 0f3d bc63 f9bd 569f 193e
000001c0: 19f2 1fbe ed21 2ebe 45b2 3a3e f580 943c
000001d0: 71cc df3d 5e5c d0bd e2f6 eb3c 9220 873c
000001e0: 2f96 223e 7a27 153e e494 8abd 8dbe b63d
000001f0: c9fd 29bd 83bf 213e 91fb 0c3d 94b1 283d
00000200: b369 25bc 48c6 06be ab86 003d 57fd 003e
00000210: 7893 14be 414b 1d3e 9695 01bd ca41 b8bc
00000220: d30a 5c3d 9b35 68bc 568c c73c a06e b83d
00000230: 27ac f1bc 0e60 4e3d 1230 43be 4550 513e
00000240: 3e1d 5fbe 7edf 8fbd 6855 b43d 4352 e63d
00000250: d6b6 e53d 03e4 4dbd f9bf debd 2f88 b03d
00000260: e987 153e 0e64 0d3e 3a08 2bbe 5e96 e43d
00000270: 799e dfbb 119c bb3c e3c1 5d3d 6782 153d
00000280: 5ba3 06bd e93e b8bd c051 0dbe 233d 13bd
00000290: e6ca cb3c e9c1 1a3d bb94 80bd 913d a2bd
000002a0: 6235 243e 6c32 98bd 2682 c93d f3a0 cb3d
000002b0: e033 ecbd 1bb0 d3bc 4ca8 3abe 3ba3 fc3d
000002c0: f5fb 18bb f43f d1bd 03ed 483e 4450 f73d
000002d0: b25f 1f3d 3039 d5bd e821 ad3c 570f 123e
000002e0: 30d9 dc3d d768 d93d 9d2f 103c f876 c93d
000002f0: a7d6 0abd c1d3 3a3e b5ab 423d b89d db3d
00000300: 1c49 bd3d 94ca 28bd eb10 a2bd 014d 453e
00000310: 2a9e bfbd 04c9 2b3e 669c 29bd 102c fdbc
00000320: ccfe b73d 79d3 c1bd 0535 f83b 4bf4 ec3c
00000330: 298d dabd 09d6 d53d 23c2 31be fb3c 173e
00000340: 0d95 94bd e162 66bd 0fdf 063d 7ded 8a3d
00000350: ee0a fc3d 9c45 aabd 20f5 c9bd 5c78 8b3d
00000360: dc22 493d 3272 2e3d 4f12 52be c8be 953d
00000370: 331c c6ba 6742 b33d 6c3a 363c 118f 2c3e
00000380: 37aa 91bd a785 9fbc 5f27 c13b 7b23 c7bd
00000390: 1e27 5bbc 8c50 0ebe 12d6 393d 8c62 b83c
000003a0: c337 1abe 07de 343d 911a d9bd 9919 33bd
000003b0: 5cfd d03d da81 063c 0539 a03d b2e6 61be
000003c0: 57a1 833d efd6 af3d 8d18 46be 5470 0cbd
000003d0: 75bd 39be 0ceb 943d 2715 a3bd 3f0d a0bc
000003e0: 92fc 27be 1f3a d7bd 9b8c 583d b5a9 47be
000003f0: 735a 34bd 51cd 16be 09f6 3f3d 751f 45be
0.014222451 -0.07973098 -0.01634555 0.11232538 -0.09455102 0.114013724 -0.05956366 -0.042953234
0.08860689 -0.052269373 0.09499482 0.09542936 -0.040884465 0.05812428 -0.1393491 0.12501323
-0.20732456 -0.08485412 0.11770402 0.109736286 0.10755176 -0.08187479 -0.0115538165 0.032240257
0.08901867 0.10869931 -0.13575679 0.1522408 0.006837658 0.07179947 0.008991547 0.19061138
0.0931097 -0.0022662536 -0.0020011016 0.13642973 -0.09817192 0.17184108 0.014895023 0.04602841
0.19761157 -0.14297466 0.107384205 0.062713996 -0.08388723 0.112199314 -0.21541779 0.049437337
-0.033612844 -0.15457273 -0.0043172976 0.14174312 0.2370556 -0.056235008 -0.020303138 0.16624293
0.07924733 0.102277815 -0.061880965 0.013882953 -0.12372369 0.13006309 0.029038655 0.118717775
-0.0075238487 -0.004412834 -0.10438521 0.13503748 -0.09978604 0.04751251 -0.024295676 -0.047334656
0.11447916 0.008371205 0.12114476 0.05864054 -0.015926888 -0.019317508 -0.11133214 0.061987795
-0.12920618 -0.07961899 0.11491196 0.07271427 0.09930401 -0.066371314 0.0702293 0.084851526
0.039400153 0.096830845 -0.10688973 0.17505147 -0.15052116 0.11199344 -0.090063214 0.116447814
0.07959785 -0.06543557 -0.019963507 0.16085516 -0.043995976 0.058522016 -0.129074 -0.028027844
0.14074352 -0.12672693 0.03795293 0.048320696 -0.010342367 0.03500824 -0.12177226 0.15002188
-0.15619697 -0.17005129 0.18232067 0.018127898 0.10927666 -0.10173868 0.028804246 0.016495023
0.15877603 0.1456584 -0.0676668 0.089230634 -0.041501794 0.15795712 0.0344196 0.041184977
-0.010096001 -0.13161576 0.03137843 0.12596641 -0.1450938 0.15360738 -0.031636797 -0.022492308
0.05372126 -0.014172937 0.02435891 0.09005475 -0.029501034 0.050384574 -0.19061306 0.20440777
-0.21788499 -0.070250496 0.088053524 0.11246159 0.11216514 -0.050266277 -0.1087646 0.08619725
0.14602627 0.13807699 -0.16702357 0.11161493 -0.0068243113 0.022901567 0.054139983 0.036501314
-0.03287063 -0.08996374 -0.13800716 -0.035946976 0.024877023 0.037782583 -0.06278368 -0.07921899
0.16035989 -0.07431492 0.09839277 0.09942808 -0.11533332 -0.02584081 -0.18228263 0.12335821
-0.0023343537 -0.10217276 0.19621663 0.12075856 0.03890962 -0.10411298 0.021134332 0.14263664
0.10783613 0.106157 0.008800414 0.098371446 -0.033896115 0.1824484 0.047527034 0.10723442
0.0924246 -0.04120882 -0.07913383 0.19267656 -0.09356339 0.167759 -0.04140892 -0.0309048
0.089841455 -0.09464163 0.00757468 0.028925082 -0.106714554 0.104412146 -0.17359214 0.14769356
-0.07254992 -0.056246642 0.03292757 0.067835785 0.12306772 -0.08314058 -0.09861207 0.06810066
0.04910551 0.042589374 -0.20514797 0.07311779 -0.0015114605 0.087528996 0.011122327 0.1685145
-0.07112544 -0.01947291 0.005894586 -0.09723564 -0.0133760255 -0.13897914 0.04537017 0.022507928
-0.15060334 0.044157054 -0.1060077 -0.043725584 0.102045745 0.00820967 0.078233756 -0.2206066
0.064272575 0.08585917 -0.19345303 -0.034286812 -0.18138678 0.07271394 -0.07963019 -0.019537566
-0.16404942 -0.105091326 0.052868467 -0.19498332 -0.04403157 -0.1472676 0.046865497 -0.19250281

bias f4 [16]
00000000: 0205 74b5 644e aa33 2854 9433 dac4 e234
00000010: b16f e5b4 8a15 7eb4 53fe bab5 d0ad 56b5
00000020: d862 c834 1040 a9b5 8026 5f33 df02 9cb4
00000030: 2877 9ab5 ef59 34b4 533a d3b5 c912 96b6
-9.090437e-07 7.930501e-08 6.907095e-08 4.223901e-07 -4.273584e-07 -2.3663429e-07 -1.3932098e-06 -7.9974143e-07
3.732482e-07 -1.2610126e-06 5.195625e-08 -2.9059353e-07 -1.1508573e-06 -1.6796524e-07 -1.57377e-06 -4.4725352e-06

weight f4 [16]
00000000: ba02 bc3f facb 973f 578e a63f ba1b a43f
00000010: ec2c 9b3f 62e3 9c3f 50ef 9d3f 0864 c03f
00000020: dfc2 d73f 1c33 ca3f 62c0 a63f cc84 a53f
00000030: d02a c73f 5900 d03f 7278 e43f 5743 c33f
1.4688332 1.1859124 1.3012189 1.2820961 1.2123084 1.2256892 1.2338657 1.5030527
1.6856345 1.5796847 1.302746 1.2931151 1.555994 1.6250106 1.7849257 1.5254925

bias f4 [16]
00000000: d7a7 6c3e c740 da3d 311d 293e 15ed 313e
00000010: 5e62 b13d 4bca f83d 1162 013e 2296 073f
00000020: dbd7 3a3f d087 1b3f 9b45 313e ad15 2d3e
00000030: dbff 183f cdc8 243f fb48 453f e8e4 0e3f
0.23110901 0.106568865 0.16515042 0.17375596 0.0866134 0.12147959 0.12635066 0.5296346
0.7298562 0.6075411 0.17311709 0.169028 0.59765404 0.643689 0.77064484 0.55818033

running_mean f4 [16]
00000000: 5547 843e a5fc bc3e 9f09 673e 4cf1 6e3e
00000010: 56a6 343e c55d 873e 269a 2b3e 6780 17bf
00000020: 4991 06bf 0876 12bf b244 723e 7f8e 933e
00000030: f274 05bf beb5 1fbf 35c8 1dbf 70b0 24bf
0.25835672 0.36911502 0.22562264 0.23334235 0.17641577 0.26438728 0.16758022 -0.591803
-0.5256544 -0.5721135 0.23659018 0.28819653 -0.5213157 -0.6238669 -0.61633617 -0.6433172

running_var f4 [16]
00000000: 8e21 0e40 4bbf 2240 7621 e13f abb6 0740
00000010: 4969 fb3f 5f11 f53f 2615 e73f d9d2 3c40
00000020: b690 3140 3fa3 1e40 0ac2 1040 3822 1c40
00000030: 6328 3c40 7ef3 2140 e3aa 6240 25ff 3640
2.220798 2.5429256 1.7588336 2.1205242 1.9641505 1.9145926 1.8053329 2.9503691
2.7744575 2.4787138 2.2618432 2.4395885 2.939965 2.5304866 3.54168 2.8593228

weight f4 [1, 16]
00000000: f9ab ca3e 7cee b53e 69a3 d03e 3fd1 bf3e
00000010: 6b3c d53e 3fde a53e 6d07 9b3e 3f15 30bf
00000020: 11b9 00bf 156a 1dbf d32d dd3e c094 b73e
00000030: 7108 1fbf eaf0 11bf b8be ffbe f225 25bf
0.3958433 0.35533512 0.40749672 0.3746433 0.41647658 0.32396123 0.30279103 -0.6878242
-0.5028239 -0.61489993 0.43199024 0.35855675 -0.62122256 -0.5700823 -0.49950194 -0.64511025
