5.1/deployment_models/edge_security_net.onnx (onnx, 19306 bytes, 15 tensors)

fc1.weight f4 [64, 21]
0.05904748 0.0976662 -0.07924061 0.08580251 -0.04403734 0.053456303 -0.05957339 0.4651235
0.1365883 -0.08455225 0.124710225 0.03571925 0.13448092 0.056203134 0.07886435 -0.032501984
0.079628915 0.03569846 -0.07482639 0.039366227 -0.081798345 0.009751201 -0.05728482 0.16574788
-0.15018752 -0.18228006 -0.08826775 -0.15149464 -0.10342856 -0.21987623 0.14268863 -0.14973958
0.15207656 -0.052402657 -0.07785151 0.084035486 0.034740027 0.20379831 0.021118315 -0.07990403
0.08554986 -0.11610636 -0.010094814 0.14590736 0.11062247 -0.105086416 0.110134505 0.048266817
0.12214671 -0.37075248 -0.16511662 -0.083243616 -0.16300988 0.09581845 -0.004302097 0.029163698
0.07916305 -0.0061785453 0.12336087 -0.06616273 0.076266676 -0.11237589 0.023562461 -0.08299218
0.04463005 -0.05130926 0.12704718 -0.11176993 -0.09497531 -0.115835644 0.4976115 0.04154375
0.11947264 -0.03318061 -0.19436072 -0.09959471 -0.18409406 0.0646861 0.05721456 0.07581521
-0.0014801754 -0.04702379 0.049979057 -0.08908925 0.08069346 -0.04208334 0.13330615 -0.148068
-0.096204825 0.11998448 0.016981868 0.09817769 0.09984315 0.048915047 -0.1855304 -0.15187503
0.24046694 -0.09763886 -0.10294325 -0.1689158 -0.108092315 0.09620092 -0.04889 -0.1733409
-0.010893291 -0.16428706 -0.1443452 -0.08794957 -0.14986284 -0.0738306 0.17791732 0.004386868
0.19621879 -0.23811619 -0.14126189 -0.07985503 -0.0022707435 -0.19196321 -0.15804972 -0.09116247
0.01131926 -0.059640653 -0.0711012 -0.1763067 -0.17335236 -0.103512675 -0.14872646 -0.18827705
0.14927283 -0.0074155843 0.11195701 0.059776805 -0.16282684 0.3834928 -0.09142518 -0.12168502
-0.09609297 -0.22333515 0.008437895 -0.11876607 0.12353023 -0.1563475 0.14103124 -0.04093417
-0.055095058 -0.028829558 0.05127038 0.10541714 0.1361377 -0.15087308 0.031910695 -0.0007652591
-0.042204972 -0.11625648 0.4185496 -0.2336691 0.10131748 0.06615898 0.04469643 -0.05975863
0.08363329 0.0220527 0.06392909 -0.15073138 0.10670993 0.017425342 -0.05652956 0.114610545
0.13257371 -0.12009846 -0.07740049 0.0028512771 0.11684312 -0.06884199 -0.07563323 -0.2235826
-0.15909335 0.049794722 0.16409741 -0.19456005 0.03734355 0.10837275 0.01125665 -0.13360289
0.10215825 0.087934464 0.018885229 -0.003324703 -5.8137462e-05 0.048229963 -0.06494677 -0.0873963
0.14826465 0.16578732 -0.03624497 -0.08668489 -0.043743286 -0.019406777 0.05226787 0.06299769
-0.23321262 -0.041435737 0.18093298 0.037621405 0.026351072 -0.15649074 -0.10211769 -0.22298057
-0.029049475 0.080133595 0.09620069 0.10684766 -0.17079204 -0.09172612 -0.04916614 0.16034864
0.05161533 -0.20923312 0.045272265 -0.05989394 -0.06659277 0.12204586 -0.20825955 -0.04650768
-0.2641039 0.13097921 0.17239481 0.10271429 -0.07357696 -0.24962878 -0.182017 0.15302129
0.081451945 0.10873012 0.06908593 0.03527386 -0.010646097 -0.18734226 -0.3364722 -0.19680707
0.07850402 -0.10786668 -0.04582189 -0.11463481 0.00013699461 -0.16963126 -0.14988638 0.079553366
-0.009392253 0.11143622 -0.00010469521 -0.10011885 -0.041301202 -0.11161574 -0.03709325 -0.16977127
00000000: c5db 713d 3705 c83d e748 a2bd 3ab9 af3d
00000010: 7f60 34bd fff4 5a3d 3a03 74bd ab24 ee3e
00000020: cedd 0b3e bb29 adbd 1368 ff3d 594e 123d
00000030: 5eb5 093e 4235 663d a283 a13d cd20 05bd
00000040: 7c14 a33d 8c38 123d 943e 99bd 7b3e 213d
00000050: e485 a7bd 80c3 1f3c 7da3 6abd d0b9 293e
00000060: c2ca 19be a0a7 3abe b9c5 b4bd 6921 1bbe
00000070: 5ad2 d3bd 3c27 61be f81c 123e 5555 19be
00000080: f5b9 1b3e 2ba4 56bd 9d70 9fbd cc1a ac3d
00000090: 8f4b 0e3d 81b0 503e 5100 ad3c b9a4 a3bd
000000a0: c434 af3d 2cc9 edbd b864 25bc bd68 153e
000000b0: 098e e23d 8c37 d7bd 338e e13d 6db3 453d
000000c0: 0e28 fa3d 45d3 bdbe 5514 29be a17b aabd
000000d0: 10ec 26be 773c c43d 9bf8 8cbb b5e8 ee3c
000000e0: 3d20 a23d 6575 cabb a0a4 fc3d 5380 87bd
000000f0: b431 9c3d 5525 e6bd 1006 c13c cef7 a9bd
00000100: 00ce 363d a929 52bd a818 023e a2e7 e4bd
00000110: 6a82 c2bd 3d3b edbd efc6 fe3e c729 2a3d
00000120: 12ae f43d 64e8 07bd 7f06 47be 50f8 cbbd
00000130: 2783 3cbe 257a 843d d159 6a3d 0145 9b3d
00000140: 7202 c2ba 059c 40bd d7b6 4c3d 6d74 b6bd
00000150: 9d42 a53d 955f 2cbd 6881 083e 239f 17be
00000160: 0907 c5bd 6cba f53d 8f1d 8b3c 6211 c93d
00000170: 917a cc3d 255b 483d aefb 3dbe 2185 1bbe
00000180: f73c 763e e2f6 c7bd e9d3 d2bd 43f8 2cbe
00000190: 815f ddbd fd04 c53d e140 48bd 4780 31be
000001a0: c679 32bc de3a 28be 3acf 13be e71e b4bd
000001b0: a575 19be 7f34 97bd f52f 363e b7bf 8f3b
000001c0: 94ed 483e bbd4 73be f5a6 10be 098b a3bd
000001d0: c1d0 14bb 0192 44be c9d7 21be 64b3 babd
000001e0: 6b74 393c c249 74bd 829d 91bd be89 34be
000001f0: 4883 31be 74fe d3bd c04b 18be b3cb 40be
00000200: fada 183e 6efe f2bb b849 e53d 86d8 743d
00000210: 14bc 26be 2b59 c43e 203d bbbd ff35 f9bd
00000220: 64cc c4bd f8b1 64be 193f 0a3c a03b f3bd
00000230: 6bfd fc3d 8f19 20be 7e6a 103e 97aa 27bd
00000240: 5bab 61bd f72b ecbc e400 523d f1e4 d73d
00000250: ae67 0b3e 797e 1abe cab4 023d ab9b 48ba
00000260: 1fdf 2cbd e117 eebd 224c d63e f446 6fbe
00000270: 8a7f cf3d 5c7e 873d 9b13 373d 77c5 74bd
00000280: ee47 ab3d dda7 b43c 41ed 823d 5459 1abe
00000290: bc8a da3d 97bf 8e3c 8a8b 67bd efb8 ea3d
000002a0: 67c1 073e 2ef6 f5bd 2684 9ebd 7edc 3a3b
000002b0: 724b ef3d 07fd 8cbd 98e5 9abd d6f2 64be
000002c0: 5ee9 22be 8df5 4b3d 2709 283e c03a 47be
000002d0: 8df5 183d 88f2 dd3d d06d 383c 32cf 08be
000002e0: 5838 d13d fc16 b43d 32b5 9a3c 43e3 59bb
000002f0: a0d8 73b8 c88c 453d d002 85bd d5fc b2bd
00000300: b0d2 173e 27c4 293e 9b75 14bd d987 b1bd
00000310: 292c 33bd f6fa 9ebc d616 563d ef04 813d
00000320: 4acf 6ebe 85b8 29bd 7f46 393e e718 1a3d
00000330: 34de d73c 1c3f 20be 1423 d1bd 0555 64be
00000340: 2af9 edbc 151d a43d de04 c53d f2d2 da3d
00000350: 1ce4 2ebe e7da bbbd 6f62 49bd 6f32 243e
00000360: 996a 533d 3541 56be 696f 393d 5953 75bd
00000370: ca61 88bd 2ef3 f93d fe41 55be d67e 3ebd
00000380: a038 87be 6a1f 063e 4488 303e df5b d23d
00000390: 84af 96bd b09e 7fbe aa62 3abe 9db1 1c3e
000003a0: 47d0 a63d e6ad de3d ed7c 8d3d 537b 103d
000003b0: f86c 2ebc a6d6 3fbe 1646 acbe cb87 49be
000003c0: b7c6 a03d 35e9 dcbd bcaf 3bbd a8c5 eabd
000003d0: 36a6 0f39 d1b3 2dbe d17b 19be e0ec a23d
000003e0: f7e1 19bc ac38 e43d d08f dbb8 1d0b cdbd
000003f0: 732b 29bd cb96 e4bd 17ef 17bd 85d8 2dbe

fc1.bias f4 [64]
-3.7603775e-05 -1.6471171e-06 3.5502296e-06 -2.1175372e-06 -1.2088898e-06 -9.5332525e-06 7.272503e-06 1.1122322e-05
1.3453282e-06 7.780071e-07 4.9036444e-06 5.908387e-06 3.7505133e-06 1.2105865e-08 -5.6627255e-06 -1.2037147e-05
2.6597077e-06 7.0194124e-06 7.1792224e-06 4.686046e-06 -7.011611e-06 -1.29832e-05 -5.4868445e-07 2.5723389e-06
7.046519e-07 -5.8522282e-06 -5.450838e-05 7.6275514e-06 2.5325797e-05 -7.783424e-06 1.4580425e-05 -1.1226956e-06
1.032462e-05 -4.6229405e-05 7.8208495e-06 -2.919469e-06 1.9890535e-06 -1.3407722e-05 7.347652e-07 1.2107279e-05
8.029252e-06 2.5665982e-05 -6.4465344e-06 -3.5754088e-06 1.206164e-05 -2.1554857e-05 7.0993487e-06 -0.00015373799
-1.5737394e-05 6.573132e-06 -1.4549879e-07 -1.1269557e-05 7.86547e-06 -4.2670176e-06 1.7966634e-06 1.3109329e-06
-1.0907938e-05 -7.721779e-06 5.492462e-06 -3.3953283e-06 7.566125e-06 4.441403e-06 2.3970226e-05 6.9442e-06
00000000: bfb8 1db8 8312 ddb5 7b40 6e36 031b 0eb6
00000010: 2341 a2b5 02f1 1fb7 5306 f436 029a 3a37
00000020: 2091 b435 3ed8 5035 fc89 a436 a840 c636
00000030: 54b1 7b36 28fa 4f32 7102 beb6 27f3 49b7
00000040: 6e7d 3236 4b88 eb36 0de5 f036 d43c 9d36
00000050: 4845 ebb6 6bd2 59b7 4f49 13b5 72a0 2c36
00000060: 4f27 3d35 425e c4b6 ed9f 64b8 2bf0 ff36
00000070: bc72 d437 8d95 02b7 739e 7437 87af 96b5
00000080: e837 2d37 72e6 41b8 4b36 0337 18ec 43b6
00000090: ae7b 0536 baf1 60b7 ae3c 4535 5e20 4b37
000000a0: 60b5 0637 474d d737 4f4f d8b6 0ef1 6fb6
000000b0: 595c 4a37 b4d0 b4b7 f136 ee36 ba34 21b9
000000c0: cc03 84b7 c68e dc36 673a 1cb4 6112 3db7
000000d0: f0f5 0337 672d 8fb6 e224 f135 50f3 af35
000000e0: 3d01 37b7 ca8c 01b7 e44b b836 4cdb 63b6
000000f0: 85e0 fd36 5c07 9536 ab13 c937 3902 e936

bn1.weight f4 [64]
0.9708444 0.9770058 1.0119889 1.0348802 0.92179745 0.89015096 0.95059747 0.97536004
0.98755693 0.9676146 0.99311686 1.0399861 0.914595 0.9638626 0.9418115 0.9599977
1.0274882 0.9682855 1.1096092 1.0687907 1.1050112 1.0679332 0.9396403 0.95882773
0.98733467 0.9663543 1.0085759 1.0313996 0.9828896 0.94161123 0.9323377 1.0619115
0.986411 1.0065793 0.95742714 0.93540573 1.0511075 0.8670783 0.9313044 1.0276043
1.0160989 0.987153 0.94541484 1.035259 0.95408124 1.0167711 0.9813482 1.2229048
1.0564187 0.97445315 0.88393193 1.0032619 0.9188007 0.95311916 1.026933 0.9095323
0.9770181 0.9120311 1.0490025 1.0770026 1.0154246 0.95050687 0.97929454 0.9442036
00000000: 4289 783f 0d1d 7a3f da88 813f f476 843f
00000010: ebfa 6b3f efe0 633f 5b5a 733f 32b1 793f
00000020: 88d0 7c3f 97b5 773f e83c 7e3f 441e 853f
00000030: e622 6a3f b3bf 763f 8f1a 713f 69c2 753f
00000040: bc84 833f 8fe1 773f ad07 8e3f 22ce 883f
00000050: 0271 8d3f 09b2 883f 448c 703f bc75 753f
00000060: f7c1 7c3f ff62 773f 0419 813f e704 843f
00000070: a79e 7b3f 6f0d 713f afad 6e3f b7ec 873f
00000080: 6e85 7c3f 97d7 803f f219 753f c076 6f3f
00000090: b18a 863f d8f8 5d3f f769 6e3f 8a88 833f
000000a0: 870f 823f 0fb6 7c3f b506 723f 5e83 843f
000000b0: ab3e 743f 8e25 823f a339 7b3f 2588 9c3f
000000c0: ba38 873f c375 793f 5d49 623f e36a 803f
000000d0: 8636 6b3f 9eff 733f 8a72 833f 1cd7 683f
000000e0: dc1d 7a3f df7a 693f b745 863f 39db 893f
000000f0: 6ff9 813f 6b54 733f 0cb3 7a3f 54b7 713f

bn1.bias f4 [64]
0.0008696016 0.0236044 0.050245065 0.023636675 -0.050547462 -0.09898462 -0.030534875 -0.01635093
0.013659402 0.026133085 0.044111732 0.11229931 -0.042985857 -0.029388437 -0.024915755 -0.06317331
0.03227972 -0.03861225 -0.06260266 0.12839314 0.13020441 -0.06477305 -0.04101572 -0.04389222
-0.00993838 -0.035342835 -0.013147661 -0.06605789 0.0847411 0.0033679018 -6.4837135e-05 0.006629133
0.049557947 -0.028843144 -0.021857044 -0.05043785 0.10525785 -0.082256734 0.07916523 -0.104069255
-0.005799221 -0.081785515 -0.00044411077 0.07918779 0.00189664 -0.0028478964 0.03719672 -0.10349783
-0.0733029 -0.047196943 -0.0902392 0.049778 -0.071387656 -0.023124391 0.04172263 -0.012257772
0.06258367 -0.08215039 0.06734909 0.06417677 -0.014036602 -0.07095615 -0.076067954 -0.025253993
00000000: faf5 633a 045e c13c c5cd 4d3d b3a1 c13c
00000010: db0a 4fbd 73b8 cabd 4624 fabc 63f2 85bc
00000020: afcb 5f3c 0d15 d63c 81ae 343d 2efd e53d
00000030: f011 30bd 05c0 f0bc 201c ccbc 0261 81bd
00000040: bd37 043d e127 1ebd d335 80bd 7e79 033e
00000050: 4e54 053e bca7 84bd 1a00 28bd 54c8 33bd
00000060: 96d4 22bc a6c3 10bd 4a69 57bc 5c49 87bd
00000070: be8c ad3d 04b8 5c3b 2cf9 87b8 3339 d93b
00000080: 46fd 4a3d 7548 ecbc 8b0d b3bc eb97 4ebd
00000090: 6d91 d73d 3876 a8bd 6121 a23d 4322 d5bd
000000a0: 6407 bebb 2a7f a7bd 8ad7 e8b9 352d a23d
000000b0: ae98 f83a c6a3 3abb 965b 183d acf6 d3bd
000000c0: d51f 96bd 9551 41bd 54cf b8bd 04e4 4b3d
000000d0: b133 92bd 5d6f bdbc 59e5 2a3d d2d4 48bc
000000e0: de2b 803d 773e a8bd 52ee 893d 1c6f 833d
000000f0: c7f9 65bc 7551 91bd 84c9 9bbd 76e1 cebc

bn1.running_mean f4 [64]
0.0010597707 -0.0007082074 -0.0041286238 -0.009767624 0.019733252 -0.0072422177 -0.004618674 -0.023628645
-0.00067937374 0.0016357386 0.0034196395 -0.008360862 -0.00034523034 0.0019210752 -0.0021821165 -0.00070343306
-0.0056530107 -0.0013643758 -0.008146118 -0.00397171 -0.0022400434 -0.016471442 -0.0020499818 0.015011643
0.013135276 0.017746847 -0.007821267 -0.015996011 0.0067866654 -0.014368291 -0.0014769392 0.0058563044
-0.002750387 -0.024840005 0.020328023 0.010390695 -0.014162719 0.0015169177 -0.005099478 -0.006184705
0.005195073 -0.011176437 -0.015675768 0.018790763 -0.0023721312 -0.0050127376 0.02028587 -0.007654826
-0.012740833 -0.009181467 -0.004157805 0.0078793885 -0.012348677 -0.018043745 -0.0026292892 0.014692988
0.010467998 -0.013348241 0.01645644 0.010172465 -0.010362356 0.003422876 -0.003529008 0.0074756565
00000000: 01e8 8a3a fea6 39ba 6849 87bb 6208 20bc
00000010: a1a7 a13c 2050 edbb 3f58 97bb dc90 c1bc
00000020: 0018 32ba 4866 d63a 081c 603b fffb 08bc
00000030: 0800 b5b9 96cc fb3a d701 0fbb 9866 38ba
00000040: e43c b9bb dbd4 b2ba 4c77 05bc 1e25 82bb
00000050: b1cd 12bb 1eef 86bc fd58 06bb 65f3 753c
00000060: 5735 573c d661 913c c524 00bc 110a 83bc
00000070: ad62 de3b fb68 6bbc db95 c1ba 3ee6 bf3b
00000080: d63f 34bb 447d cbbc f486 a63c bc3d 2a3c
00000090: c00a 68bc 50d3 c63a 8619 a7bb 11a9 cabb
000000a0: 6e3b aa3b 601d 37bc 786a 80bc 16ef 993c
000000b0: c275 1bbb e441 a4bb 8e2e a63c 56d5 fabb
000000c0: edbe 50bc dd6d 16bc 323e 88bb 8d18 013c
000000d0: 1b52 4abc 7ad0 93bc 2750 2cbb dcba 703c
000000e0: f781 2b3c 95b2 5abc a8cf 863c 69aa 263c
000000f0: dfc6 29bc 5452 603b ee46 67bb 5af6 f43b

bn1.running_var f4 [64]
0.3524389 0.33734035 0.2971491 0.36725262 0.32548884 0.36340666 0.46622616 0.37853476
0.22395328 0.27260923 0.47969484 0.35376576 0.3843632 0.42922196 0.32391873 0.30863318
0.33371112 0.29059088 0.2928435 0.27718794 0.2724229 0.35330516 0.2829663 0.27731392
0.31684187 0.31933892 0.38435015 0.2903481 0.35330042 0.41489202 0.3111631 0.30053902
0.47235313 0.35353616 0.44991758 0.35190105 0.37460992 0.3631584 0.36233965 0.2749547
0.43544227 0.34198678 0.34014955 0.31947857 0.3168746 0.2497363 0.30832306 0.15976962
0.18983877 0.32041445 0.47050732 0.37947786 0.3609137 0.4979426 0.37554428 0.41109756
0.32053158 0.37177306 0.31367213 0.3006318 0.36981753 0.39559704 0.22182822 0.3927893
00000000: df72 b43e e0b7 ac3e ed23 983e 8908 bc3e
00000010: 79a6 a63e 7010 ba3e 32b5 ee3e 4fcf c13e
00000020: 0254 653e 7093 8b3e 909a f53e c920 b53e
00000030: 41cb c43e fbc2 db3e add8 a53e 2b05 9e3e
00000040: 2fdc aa3e 54c8 943e 95ef 953e 94eb 8d3e
00000050: 047b 8b3e 6ae4 b43e f5e0 903e 17fc 8d3e
00000060: 1939 a23e 6480 a33e 8bc9 c43e 82a8 943e
00000070: cbe3 b43e ba6c d43e c550 9f3e 40e0 993e
00000080: 45d8 f13e b102 b53e 995b e63e 602c b43e
00000090: dfcc bf3e e6ef b93e 9584 b93e ddc6 8c3e
000000a0: 4af2 de3e e418 af3e 1528 ae3e b292 a33e
000000b0: 633d a23e dfba 7f3e 85dc 9d3e a69a 233e
000000c0: 1865 423e 5d0d a43e 56e6 f03e ec4a c23e
000000d0: aec9 b83e 55f2 fe3e 5747 c03e 617b d23e
000000e0: b71c a43e 0a59 be3e a299 a03e 69ec 993e
000000f0: b958 bd3e b28b ca3e f026 633e ae1b c93e

fc2.weight f4 [32, 64]
0.040851384 0.019623712 0.0015239012 0.13315159 -0.002359409 -0.012911394 0.03638244 0.045401793
-0.10072159 0.030216811 -0.066842675 -0.03543355 0.04354934 0.09543297 -0.018994182 0.018029774
-0.022356654 -0.02275184 0.11637213 -0.08501797 -0.1287918 0.054102186 0.1363004 0.026294596
-0.050760783 0.039434362 -0.0036733455 0.0658858 0.014629727 0.05912611 -0.06754171 -0.011483072
-0.1145783 0.036541488 0.055989742 -0.07853033 -0.121445745 -0.093536735 0.012840728 0.16814284
-0.13017356 0.019382581 0.050614942 -0.17819817 0.03949561 0.15370765 -0.015643151 0.058367204
0.05279753 0.07220564 0.076164424 -0.044060264 -0.021881329 0.065203585 -0.018673055 -0.0070899646
-0.062599756 -0.015008677 -0.002568536 -0.0964398 0.15061958 0.101429746 0.018330636 -0.026651535
-0.05149786 0.04907514 -0.12611341 -0.031378236 -0.024160668 0.048795164 -0.08946705 -0.058878593
-0.03517944 0.025138803 -0.041018914 -0.093037255 -0.00010742624 0.014264611 0.06432009 0.043372378
0.05230781 0.04045999 -0.13052505 -0.063822046 -0.023414643 -0.15099515 -0.08230896 -0.13079962
-0.089898065 0.048652448 0.040347643 0.028376846 0.11817855 9.11223e-05 -0.03499943 -0.060720794
0.08963802 -0.1797736 0.014756551 0.0319815 0.09875913 0.050073337 -0.024494905 -0.007196487
0.1016547 0.04572224 -0.07625671 0.11630409 0.080225594 -0.012947508 0.0629893 -0.15038836
0.021461157 -0.033840958 0.04356037 0.15148236 0.00034330605 -0.015054183 -0.00895975 0.001292097
0.030750923 0.0050770813 0.11967453 0.13634975 -0.11968856 -0.00445355 -0.038842507 -0.06949755
0.08984437 -0.013014758 -0.088478334 0.05276061 0.019093039 0.09220845 0.069566466 0.1513788
0.01411829 0.033987388 -0.009887549 -0.03690122 -0.043158907 -0.06806806 -0.020636152 0.025935663
-0.023238255 0.06529018 0.13418071 -0.06433374 -0.0940303 0.037847176 0.026125189 -0.020937564
-0.029185118 0.0119253965 0.114561796 0.03383249 -0.09112118 -0.021396201 -0.024447408 -0.0052353423
-0.059202436 0.052775774 0.06310028 0.03196562 -0.05365014 -0.048813153 -0.021503441 0.08249432
-0.030819142 0.047287423 0.044272564 -0.06928478 -0.070077576 0.04093889 -0.057611685 0.15767457
0.07608484 0.13837723 0.042821925 -0.06847829 0.057243384 0.018273355 -0.016270773 0.06074743
-0.03399226 -0.0082451 -0.038726307 -0.11201594 -0.0057972963 -0.0076565905 0.0031492724 0.025813606
-0.084163114 0.066891804 -0.11709656 -0.052410193 -0.010703045 0.044463944 -0.119964235 0.008767702
0.009349755 0.054192357 0.05350418 0.12888363 -0.115574986 -0.0657255 0.12408902 -0.12950473
0.046980698 -0.047396567 0.018386658 -0.0066335034 -0.05536088 -0.084464535 0.025205392 0.026404953
0.09638484 -0.045632526 0.011738341 -0.12696107 0.094056346 0.037400816 0.06429909 -0.12929745
-0.026391387 0.014375407 -0.06335036 -0.108335406 -0.11703514 0.0036441572 0.11497882 0.017496185
0.065090604 0.006143862 -0.10020019 0.038916998 -0.0019069914 -0.082704715 0.082457654 -0.16793194
-0.031350575 -0.16081387 -0.031361554 -0.06489222 0.018407585 -0.047185898 0.12176301 -0.15112264
0.077110074 -0.047048118 0.057779726 0.031237131 -0.033277094 -0.051413286 0.019553278 0.023492724
00000000: c853 273d e8c1 a03c a4bd c73a e458 083e
00000010: 50a0 1abb 508a 53bc c105 153d 3bf7 393d
00000020: 1f47 cebd 3f89 f73c d0e4 88bd c522 11bd
00000030: cb60 323d 5c72 c33d b099 9bbc 2db3 933c
00000040: 4d25 b7bc 1162 babc 8354 ee3d e71d aebd
00000050: ffe1 03be 419a 5d3d 5592 0b3e c467 d73c
00000060: 8aea 4fbd ed85 213d 83bc 70bb 22ef 863d
00000070: 86b1 6f3c 382e 723d 4f53 8abd 7f23 3cbc
00000080: 07a8 eabd 87ac 153d 8055 653d 82d4 a0bd
00000090: 8cb8 f8bd 3090 bfbd eb61 523c a32d 2c3e
000000a0: 384c 05be 38c8 9e3c 9d51 4f3d 9579 36be
000000b0: 26c6 213d 8a65 1d3e 1126 80bc 7312 6f3d
000000c0: 3942 583d 8de0 933d 18fc 9b3d 8978 34bd
000000d0: 7940 b3bc 7589 853d 3cf8 98bc ef52 e8bb
000000e0: 4d34 80bd f4e6 75bc e254 28bb 3b82 c5bd
000000f0: 053c 1a3e 66ba cf3d 212a 963c 5254 dabc
00000100: 6cef 52bd 0403 493d e023 01be 7786 00bd
00000110: 98ec c5bc 70dd 473d 803a b7bd ae2a 71bd
00000120: 5118 10bd e4ef cd3c 7303 28bd 518a bebd
00000130: 064a e1b8 1db6 693c 40ba 833d 3ca7 313d
00000140: b740 563d 60b9 253d 5ca8 05be 22b5 82bd
00000150: 11d0 bfbc 799e 1abe 9a91 a8bd 56f0 05be
00000160: 7a1c b8bd ca47 473d 9243 253d 8f76 e83c
00000170: 9807 f23d ea18 bf38 905b 0fbd 5eb6 78bd
00000180: 2394 b73d 9216 38be 76c5 713c 09ff 023d
00000190: 3a42 ca3d b319 4d3d 8aa9 c8bc 82d0 ebbb
000001a0: 5730 d03d 3e47 3b3d 7a2c 9cbd d730 ee3d
000001b0: 514d a43d c921 54bc 8900 813d 68ff 19be
000001c0: 4fcf af3c d19c 0abd 5c6c 323d 311e 1b3e
000001d0: c2fd b339 d2a5 76bc eacb 12bc 955b a93a
000001e0: 5ce9 fb3c a55d a63b ec17 f53d 459f 0b3e
000001f0: 471f f5bd 16ef 91bb 5219 1fbd bb54 8ebd
00000200: 5300 b83d da3b 55bc 2134 b5bd 821b 583d
00000210: 0169 9c3c c9d7 bc3d dd78 8e3d 0b03 1b3e
00000220: 6650 673c 5c36 0b3d 63ff 21bc bc25 17bd
00000230: 65c7 30bd 4467 8bbd 260d a9bc 0777 d43c
00000240: 275e bebc dcb6 853d ab66 093e 68c1 83bd
00000250: f592 c0bd a405 1b3d 7e04 d63c 4185 abbc
00000260: a115 efbc bd62 433c 609f ea3d f093 0a3d
00000270: be9d babd 1647 afbc ee45 c8bc 3c8d abbb
00000280: 417e 72bd 692b 583d b83a 813d 62ee 023d
00000290: 40c0 5bbd 4df0 47bd fc27 b0bc c8f2 a83d
000002a0: 6d78 fcbc 75b0 413d 2657 353d 2ee5 8dbd
000002b0: d584 8fbd 8aaf 273d 3bfa 6bbd 7175 213e
000002c0: 5ed2 9b3d c3b2 0d3e 0b66 2f3d 593e 8cbd
000002d0: 0a78 6a3d 01b2 953c 494a 85bc 4cd2 783d
000002e0: 783b 0bbd 7516 07bc 7a9f 1ebd 9d68 e5bd
000002f0: 3ff7 bdbb 23e4 fabb 0664 4e3b 0e77 d33c
00000300: b65d acbd 92fe 883d 52d0 efbd 12ac 56bd
00000310: d35b 2fbc d31f 363d cfaf f5bd 68a6 0f3c
00000320: b72f 193c cef8 5d3d 3327 5b3d 12fa 033e
00000330: 94b2 ecbd 179b 86bd 6222 fe3d e39c 04be
00000340: d56e 403d e722 42bd 9e9f 963c dc5d d9bb
00000350: 17c2 62bd befb acbd 8a7b ce3c 334f d83c
00000360: 6a65 c53d 2ce9 3abd 2c52 403c 1502 02be
00000370: 9da0 c03d 9931 193d 3eaf 833d 8d66 04be
00000380: c032 d8bc d486 6b3c d5bd 81bd f4de ddbd
00000390: 1fb0 efbd d0d2 6e3b 047a eb3d 2954 8f3c
000003a0: 394e 853d 7352 c93b c235 cdbd 6e67 1f3d
000003b0: 03f4 f9ba 1761 a9bd 8fdf a83d 5af6 2bbe
000003c0: 7669 00bd 64ac 24be f974 00bd 36e6 84bd
000003d0: 81cb 963c 0046 41bd e35e f93d e5bf 1abe
000003e0: e3eb 9d3d 87b5 40bd 6faa 6c3d 03e5 ff3c
000003f0: 904d 08bd bd96 52bd 322e a03c d073 c03c

fc2.bias f4 [32]
-3.5684207e-06 -1.1993133e-05 -4.7302696e-05 5.0140916e-05 4.3300665e-06 -2.948391e-05 1.9299086e-05 3.8232442e-06
-4.9257596e-06 -1.1653633e-06 8.809661e-06 3.026216e-05 3.0214705e-05 -2.3211935e-05 2.6638497e-06 7.8336984e-07
5.267276e-06 1.1827627e-05 3.4678683e-06 -7.3712717e-06 -8.933815e-06 2.3034738e-05 2.2804675e-06 -1.4112862e-05
-3.9492613e-07 5.5468513e-07 -6.5689483e-06 4.4532208e-06 -2.9958323e-06 -8.5181555e-06 4.7662297e-06 3.1579715e-05
00000000: 0079 6fb6 1d36 49b7 e266 46b8 664e 5238
00000010: fd4a 9136 3754 f7b7 79e4 a137 6b49 8036
00000020: f447 a5b6 9469 9cb5 35cd 1337 7edb fd37
00000030: 9675 fd37 40b7 c2b7 97c4 3236 c448 5235
00000040: 8ebd b036 456f 4637 86b9 6836 be56 f7b6
00000050: 71e2 15b7 b93a c137 220a 1936 48c6 6cb7
00000060: 3c06 d4b4 ace5 1435 d66a dcb6 e06c 9536
00000070: 020c 49b6 33e9 0eb7 9aed 9f36 7674 0438

bn2.weight f4 [32]
1.131648 1.243331 1.1576402 1.2493161 1.1937999 1.2038847 1.1808671 1.0097927
1.2136054 0.9622562 1.1665554 1.2138597 1.2584138 1.2539828 1.1914115 1.2092557
1.1904868 1.1403393 1.1963565 1.2208248 1.1971062 1.2183907 1.1839693 1.079829
1.2310002 1.0553343 1.1802279 1.0759733 1.1661258 1.2037063 1.2447059 1.1938463
00000000: d7d9 903f 7825 9f3f 8e2d 943f 97e9 9f3f
00000010: 6fce 983f e518 9a3f a726 973f e340 813f
00000020: 6c57 9b3f 6c56 763f b051 953f c15f 9b3f
00000030: b413 a13f 8282 a03f 2c80 983f e4c8 9a3f
00000040: df61 983f a3f6 913f 3622 993f fd43 9c3f
00000050: c73a 993f 3af4 9b3f 4e8c 973f d637 8a3f
00000060: 6a91 9d3f 3215 873f b511 973f 7eb9 893f
00000070: 9c43 953f 0c13 9a3f 8652 9f3f f5cf 983f

bn2.bias f4 [32]
0.016635282 0.29570228 -0.027026871 0.2968835 0.029213395 0.2497678 0.22658715 -0.014038088
0.2588288 -0.006410753 -0.0019987016 0.27315277 0.25627992 0.23414114 0.22498214 0.22515343
0.19634883 -0.034289926 0.23309359 0.22615522 0.15769818 0.26580012 0.218088 0.023751995
0.2529942 -0.07048788 0.03026066 0.1706899 0.0153814545 0.21464236 0.2826467 0.21415941
00000000: b746 883c 4a66 973e 7567 ddbc 1d01 983e
00000010: ee50 ef3c 21c3 7f3e 7606 683e 0200 66bc
00000020: 3585 843e 4b11 d2bb a6fc 02bb aeda 8b3e
00000030: 1f37 833e b2c2 6f3e b861 663e 9f8e 663e
00000040: ab0f 493e 9873 0cbd 16b0 6e3e 3c95 673e
00000050: a27b 213e f416 883e 7652 5f3e 8b93 c23c
00000060: 7588 813e f35b 90bd 34e5 f73c 55c9 2e3e
00000070: 7f02 7c3c 35cb 5b3e 11b7 903e 9b4c 5b3e

bn2.running_mean f4 [32]
0.09707823 -0.10320911 0.1421842 -0.30648968 0.23220228 -0.084435344 -0.4009983 0.04485295
-0.46629208 -0.28667766 0.16725647 -0.07246362 -0.101812676 -0.63760537 -0.29764748 -0.6731435
-0.023216933 0.18230183 -0.41558033 -0.22290096 0.17333002 -0.55324614 -0.208446 0.11870159
-0.6064242 0.10237939 0.061747115 -0.020877015 0.27038983 -0.40171015 -0.6178897 -0.39812654
00000000: f3d0 c63d 4c5f d3bd bc98 113e 37ec 9cbe
00000010: 6fc6 6d3e 70ec acbd a64f cdbe bab7 373d
00000020: d6bd eebe 6ac7 92be 4845 2b3e ce67 94bd
00000030: 2a83 d0bd 1b3a 23bf 4065 98be 2253 2cbf
00000040: 7031 bebc 55ad 3a3e f2c6 d4be 2640 64be
00000050: 6d7d 313e 8aa1 0dbf de72 55be d219 f33d
00000060: 9e3e 1bbf 49ac d13d 8bea 7c3d 4606 abbc
00000070: 8970 8a3e f4ac cdbe 052e 1ebf 3ed7 cbbe

bn2.running_var f4 [32]
1.3896157 0.64416546 1.3247348 0.8261102 1.6384073 0.70630693 1.1201088 0.968874
0.9291327 0.30915123 1.7773702 0.98631126 0.87430733 1.0891564 0.992243 1.0040879
0.9832273 2.2818925 0.9437473 0.90496844 1.6327134 1.4281696 0.9337698 1.2175525
1.002091 1.6334774 1.7793314 0.5939824 2.4160552 0.8593284 1.3010907 0.8722406
00000000: edde b13f 07e8 243f e990 a93f f57b 533f
00000010: 55b7 d13f 88d0 343f ba5f 8f3f 2008 783f
00000020: a4db 6d3f 1249 9e3e de80 e33f e57e 7c3f
00000030: 9bd2 5f3f 7a69 8b3f a303 7e3f f485 803f
00000040: c9b4 7b3f 870a 1240 6c99 713f 03ac 673f
00000050: c1fc d03f 43ce b63f 8a0b 6f3f c3d8 9b3f
00000060: 8544 803f ca15 d13f 22c1 e33f 3b0f 183f
00000070: a6a0 1a40 f2fc 5b3f 248a a63f 294b 5f3f

fc3.weight f4 [16, 32]
0.17360297 -0.14605531 0.07900202 -0.1817464 0.2944972 -0.13949683 -0.03388296 0.04986571
-0.010886344 0.027871234 0.050692815 -0.04516725 -0.167566 -0.08961557 -0.16155286 0.034060344
-0.1461258 0.20725338 0.019678924 -0.16026717 0.25357813 0.06776837 -0.15005836 0.16502047
-0.021495458 0.298793 0.28944805 -0.09005928 0.046140734 -0.20755033 -0.13627514 -0.09887955
-0.03586862 0.28824922 -0.13112201 0.05418507 -0.12133024 0.07425095 0.3277013 0.059657604
0.1412773 0.061395615 -0.15311489 0.11536726 0.2661878 0.2842463 0.28753808 0.17342553
0.0804157 -0.14063044 0.32154742 0.020965694 0.07283138 0.15619871 0.31717277 0.09781746
0.14383698 -0.14360084 0.007857881 0.015777037 -0.016792333 0.20387931 0.25999272 0.115711935
0.061706778 -0.19961745 0.006841661 -0.04382258 0.074369326 -0.067673385 -0.12002731 0.046434753
0.06582378 0.15615109 0.26094192 0.089411706 -0.11982564 -0.13498919 -0.16425338 0.036149465
0.049348883 0.2962789 -0.18322353 -0.13885583 0.29477066 -0.18428649 -0.17037529 0.209246
-0.21089125 0.13502648 0.22175702 0.16101767 0.15043758 -0.20638594 0.04351379 0.10211492
-0.07374139 0.22179419 -0.137091 0.14769314 0.012224797 0.2864901 0.28619292 -0.06897612
0.19108362 0.21148546 -0.0571829 0.1708069 0.17543273 0.38801435 0.076606646 0.08719235
0.34997264 -0.14430606 0.30600187 0.13495348 0.040395644 0.14602675 0.3531634 0.09878572
0.24245192 -0.046857644 -0.049283482 0.11486187 -0.06007871 0.26772538 0.20424885 0.3250177
-0.008123351 -0.038927704 -0.13869795 0.032161973 -0.18418646 -0.0008449972 0.021009749 0.0029599844
0.08234902 0.007135399 -0.07265846 -0.15369293 -0.18849163 0.046519537 0.047874004 -0.16521828
0.008395967 -0.08841229 0.1024849 -0.0978826 0.11214822 0.07935362 0.054834187 0.08440082
0.011926017 0.02468693 -0.16676767 -0.07551326 -0.04643329 0.03843745 -0.10002414 0.039816502
0.23694451 -0.0017198414 0.24567083 -0.08936865 0.23173104 -0.13053223 0.07777478 0.13736497
-0.062091265 -0.05375193 0.29286844 -0.08474703 0.07607983 -0.15557408 -0.18504427 -0.11856844
-0.15030025 0.18224886 -0.07567747 -0.11323424 0.23091319 0.030788414 -0.18521473 0.025323177
0.029293101 0.042306833 0.17960508 0.020790549 0.16966964 -0.16036311 -0.046057153 -0.14890681
-0.049609303 0.10459789 -0.017261004 0.28706768 -0.03079372 0.16464196 0.30881283 0.12408132
0.15756495 -0.017520387 -0.011882647 0.22033893 0.07225631 0.044126105 0.18626676 0.33046365
0.02903674 -0.14082994 0.10838967 0.02786346 -0.060725614 0.31305522 0.2978661 -0.099626705
0.1849409 -0.16609713 0.05117216 0.04558547 -0.08858228 0.09132801 0.2070181 0.2717649
0.10101656 -0.044743266 0.3000792 -0.078176595 0.19052589 -0.067569934 -0.052319992 0.2653715
0.020708043 -0.002949806 0.31724462 0.006953906 -0.05992071 0.07058543 -0.036849614 0.025083859
-0.18093239 0.3226009 0.07213814 -0.16978288 0.027749736 -0.10878527 -0.14805548 0.19405901
0.0022884146 0.14553545 0.27983865 0.04659896 0.12755966 -0.1992376 -0.019179933 -0.21052083
00000000: fac4 313e 868f 15be d0cb a13d ba1b 3abe
00000010: 56c8 963e 42d8 0ebe dcc8 0abd fd3f 4c3d
00000020: a35c 32bc 3752 e43c 45a3 4f3d 4b01 39bd
00000030: 6c96 2bbe 5e88 b7bd 1d6e 25be dc82 0b3d
00000040: 00a2 15be 3b3a 543e b235 a13c 141d 24be
00000050: fed4 813e 25ca 8a3d e6a8 19be 20fb 283e
00000060: 3e17 b0bc 65fb 983e 8932 943e 0071 b8bd
00000070: 11fe 3c3d 1388 54be b68b 0bbe 5d81 cabd
00000080: f9ea 12bd 6795 933e d944 06be 2af1 5d3d
00000090: fd7b f8bd e210 983d 77c8 a73e 885b 743d
000000a0: ffaa 103e f879 7b3d 26ca 1cbe ac45 ec3d
000000b0: c449 883e bb88 913e 3138 933e 7696 313e
000000c0: fdb0 a43d 6d01 10be dda1 a43e 3fc0 ab3c
000000d0: 9e28 953d 8ef2 1f3e 7864 a23e 8554 c83d
000000e0: 004a 133e 190c 13be 57be 003c d83e 813c
000000f0: 1390 89bc bdc5 503e c41d 853e 61fa ec3d
00000100: 3fc0 7c3d 8468 4cbe 0330 e03b 4e7f 33bd
00000110: f24e 983d 5898 8abd e1d0 f5bd 5e32 3e3d
00000120: 9ece 863d 12e6 1f3e 2e9a 853e 7c1d b73d
00000130: 2567 f5bd 9b3a 0abe 0a32 28be 7611 143d
00000140: 0e22 4a3d deb1 973e f39e 3bbe 3930 0ebe
00000150: 2eec 963e 99b5 3cbe dc76 2ebe 9544 563e
00000160: e0f3 57be 6244 0a3e 4614 633e d1e1 243e
00000170: 4f0c 1a3e d656 53be 843b 323d a121 d13d
00000180: ba05 97bd 041e 633e 9561 0cbe df3c 173e
00000190: 844a 483c d5ae 923e e187 923e 5a43 8dbd
000001a0: 6dab 433e a58f 583e 9e38 6abd 01e8 2e3e
000001b0: a3a4 333e d1a9 c63e f2e3 9c3d e791 b23d
000001c0: 9d2f b33e f8c4 13be 47ac 9c3e 3f31 0a3e
000001d0: e775 253d 0988 153e d5d1 b43e 2b50 ca3d
000001e0: 5145 783e cded 3fbd 7add 49bd b33c eb3d
000001f0: 1815 76bd 4d13 893e 9c26 513e b868 a63e
00000200: ce17 05bc a872 1fbd d606 0ebe 46bc 033d
00000210: 609b 3cbe cd82 5dba a31c ac3c 4cfc 413b
00000220: 9aa6 a83d 11d0 e93b f5cd 94bd ae61 1dbe
00000230: f303 41be 458b 3e3d 8817 443d fb2e 29be
00000240: 3d8f 093c 8111 b5bd 9ae3 d13d ac76 c8bd
00000250: f7ad e53d 2784 a23d d099 603d 56da ac3d
00000260: 5765 433c 3f3c ca3c 25c5 2abe b2a6 9abd
00000270: d530 3ebd 9670 1d3d 75d9 ccbd a116 233d
00000280: 95a1 723e 4d6c e1ba 2291 7b3e e906 b7bd
00000290: e74a 6d3e 3eaa 05be 6248 9f3d 67a9 0c3e
000002a0: 6953 7ebd fc2a 5cbd daf2 953e da8f adbd
000002b0: becf 9b3d d04e 1fbe 3f7c 3dbe 03d4 f2bd
000002c0: 4fe8 19be 729f 3a3e cafc 9abd 5ae7 e7bd
000002d0: 8274 6c3e fc37 fc3c eea8 3dbe 8d72 cf3c
000002e0: 16f8 ef3c ee49 2d3d 65ea 373e f150 aa3c
000002f0: e1bd 2d3e 3a36 24be 6da6 3cbd 077b 18be
00000300: 2033 4bbd 6b37 d63d f366 8dbc 89fa 923e
00000310: 1d43 fcbc e797 283e b71c 9e3e 591e fe3d
00000320: b558 213e ea86 8fbc 6faf 42bc 87a0 613e
00000330: 1efb 933d 93bd 343d b7bc 3e3e 8832 a93e
00000340: 75de ed3c b935 10be 67fb dd3d e941 e43c
00000350: 6cbb 78bd c648 a03e e881 983e 1609 ccbd
00000360: 2661 3d3e 5e15 2abe e699 513d d4b7 3a3d
00000370: a06a b5bd 2e0a bb3d 8efc 533e c524 8b3e
00000380: c5e1 ce3d b744 37bd fba3 993e 0d1b a0bd
00000390: 3819 433e 1b62 8abd 7d4d 56bd c6de 873e
000003a0: eaa3 a93c 8851 41bb e36d a23e 97dd e33b
000003b0: 6b6f 75bd 188f 903d 9fef 16bd aa7c cd3c
000003c0: 5746 39be f22b a53e 29bd 933d 90db 2dbe
000003d0: 6a53 e33c d0ca debd db9b 17be 68b7 463e
000003e0: 3af9 153b 3f07 153e 0347 8f3e 8dde 3e3d
000003f0: 009f 023e f104 4cbe 3c1f 9dbc c692 57be

fc3.bias f4 [16]
0.20893916 0.18552545 -0.050680336 0.23604673 -0.21729238 0.03961195 0.29613674 0.04794279
0.19173963 -0.08256363 -0.029504096 0.31919244 0.08544895 -0.061725657 0.26829955 0.05670371
00000000: 26f4 553e 62fa 3d3e 2f96 4fbd 3cb6 713e
00000010: e581 5ebe 2440 223d 3c9f 973e a95f 443d
00000020: 6557 443e 1f17 a9bd 93b2 f1bc 316d a33e
00000030: dcff ae3d 0bd4 7cbd 8f5e 893e 2642 683d

output.weight f4 [1, 16]
0.2932464 -0.45239416 0.31639823 -0.31003565 -0.0016057908 0.3804744 -0.45640522 0.22000663
-0.42934906 0.37572983 0.19531685 -0.2846916 -0.36231038 0.25101182 -0.31835684 0.17397602
00000000: 6424 963e 35a0 e7be f3fe a13e febc 9ebe
00000010: 6679 d2ba 8acd c23e f2ad e9be 6b49 613e
00000020: a4d3 dbbe a95f c03e 2401 483e 19c3 91be
00000030: bf80 b9be 9f84 803e abff a2be c526 323e
